Neural Network Tools for STM32AI v1.6.0 (STM.ai v7.2.0-RC5)
Created date          : 2022-07-28 15:02:15
Parameters            : generate --name digit_cnn -m D:/0Lab/STM32Cube_AI/MNIST_digit_classification/digit_classifier_CNN.h5 --type keras --compression none --verbosity 1 --workspace C:\Users\r3101\AppData\Local\Temp\mxAI_workspace28560387764960011674225420541989980 --output C:\Users\r3101\.stm32cubemx\network_output --allocate-inputs --allocate-outputs

Exec/report summary (generate)
------------------------------------------------------------------------------------------------------------------------
model file            : D:\0Lab\STM32Cube_AI\MNIST_digit_classification\digit_classifier_CNN.h5
type                  : keras
c_name                : digit_cnn
compression           : none
allocator strategy    : ['allocate-inputs', 'allocate-outputs']
workspace dir         : C:\Users\r3101\AppData\Local\Temp\mxAI_workspace28560387764960011674225420541989980
output dir            : C:\Users\r3101\.stm32cubemx\network_output
model_name            : digit_classifier_CNN
model_hash            : 85b30625c8174a7a8a40b4cf523f6fca
input 1/1             : 'input_1'
                        784 items, 3.06 KiB, ai_float, float, (1,28,28,1), domain:activations/**default**
output 1/1            : 'dense'
                        10 items, 40 B, ai_float, float, (1,1,1,10), domain:activations/**default**
params #              : 5,338 items (20.85 KiB)
macc                  : 18,600
weights (ro)          : 21,352 B (20.85 KiB) (1 segment)
activations (rw)      : 3,536 B (3.45 KiB) (1 segment) *
ram (total)           : 3,536 B (3.45 KiB) = 3,536 + 0 + 0

(*) input/output buffers can be used from the activations buffer

Model name - digit_classifier_CNN ['input_1'] ['dense']
----------------------------------------------------------------------------------------------------------------------------------------------------------------
id   layer (type,original)            oshape                   param/size     macc     connected to    |   c_size   c_macc          c_type                     
----------------------------------------------------------------------------------------------------------------------------------------------------------------
0    input_1 (Input, InputLayer)      [b:None,h:28,w:28,c:1]                                           |                           
----------------------------------------------------------------------------------------------------------------------------------------------------------------
1    conv2d_conv2d (Conv2D, Conv2D)   [b:None,h:8,w:8,c:8]     208/832        12,808   input_1         |            +512(+4.0%)     conv2d_of32[0]             
     conv2d (Nonlinearity, Conv2D)    [b:None,h:8,w:8,c:8]                    512      conv2d_conv2d   |            -512(-100.0%)  
----------------------------------------------------------------------------------------------------------------------------------------------------------------
2    flatten (Reshape, Flatten)       [b:None,c:512]                                   conv2d          |                           
----------------------------------------------------------------------------------------------------------------------------------------------------------------
3    dense_dense (Dense, Dense)       [b:None,c:10]            5,130/20,520   5,130    flatten         |            +150(+2.9%)     dense_of32/nl_of32[o][1, 2]
     dense (Nonlinearity, Dense)      [b:None,c:10]                           150      dense_dense     |            -150(-100.0%)  
----------------------------------------------------------------------------------------------------------------------------------------------------------------
model/c-model: macc=18,600/18,600  weights=21,352/21,352  activations=--/3,536 io=--/0



Generated C-graph summary
------------------------------------------------------------------------------------------------------------------------
model name            : digit_classifier_cnn
c-name                : digit_cnn
c-node #              : 3
c-array #             : 8
activations size      : 3536 (1 segments)
weights size          : 21352 (1 segments)
macc                  : 18600
inputs                : ['input_1_output']
outputs               : ['dense_output']

C-Arrays (8)
----------------------------------------------------------------------------------------------------
c_id   name (*_array)          item/size    domain/mem-pool           c-type        fmt     comment
----------------------------------------------------------------------------------------------------
0      input_1_output          784/3136     activations/**default**   float         float   /input 
1      conv2d_conv2d_output    512/2048     activations/**default**   float         float          
2      dense_dense_output      10/40        activations/**default**   float         float          
3      dense_output            10/40        activations/**default**   float         float   /output
4      conv2d_conv2d_weights   200/800      weights/weights           const float   float          
5      conv2d_conv2d_bias      8/32         weights/weights           const float   float          
6      dense_dense_weights     5120/20480   weights/weights           const float   float          
7      dense_dense_bias        10/40        weights/weights           const float   float          
----------------------------------------------------------------------------------------------------

C-Layers (3)
------------------------------------------------------------------------------------------------------
c_id   name (*_layer)   id   layer_type   macc    rom     tensors                    shape (array id)
------------------------------------------------------------------------------------------------------
0      conv2d_conv2d    1    conv2d       13320   832     I: input_1_output          (1,28,28,1) (0) 
                                                          W: conv2d_conv2d_weights   (1,8,5,5) (4)   
                                                          W: conv2d_conv2d_bias      (1,1,1,8) (5)   
                                                          O: conv2d_conv2d_output    (1,8,8,8) (1)   
------------------------------------------------------------------------------------------------------
1      dense_dense      3    dense        5130    20520   I: conv2d_conv2d_output0   (1,1,1,512) (1) 
                                                          W: dense_dense_weights     (512,1,1,10) (6)
                                                          W: dense_dense_bias        (1,1,1,10) (7)  
                                                          O: dense_dense_output      (1,1,1,10) (2)  
------------------------------------------------------------------------------------------------------
2      dense            3    nl           150     0       I: dense_dense_output      (1,1,1,10) (2)  
                                                          O: dense_output            (1,1,1,10) (3)  
------------------------------------------------------------------------------------------------------



Number of operations per c-layer
-------------------------------------------------------------------------------------------------
c_id    m_id   name (type)              #op (type)                       #param (sparsity)      
-------------------------------------------------------------------------------------------------
0       1      conv2d_conv2d (conv2d)            13,320 (smul_f32_f32)              208 (0.0000)
1       3      dense_dense (dense)                5,130 (smul_f32_f32)            5,130 (0.0000)
2       3      dense (nl)                           150 (op_f32_f32)                            
-------------------------------------------------------------------------------------------------
total                                            18,600                           5,338 (0.0000)

  Number of operation types
  ---------------------------------------------
  smul_f32_f32              18,450       99.2%
  op_f32_f32                   150        0.8%

Complexity report (model)
----------------------------------------------------------------------------------
m_id   name            c_macc                    c_rom                     c_id  
----------------------------------------------------------------------------------
1      conv2d_conv2d   ||||||||||||||||  71.6%   |                  3.9%   [0]   
3      dense_dense     ||||||            28.4%   ||||||||||||||||  96.1%   [1, 2]
----------------------------------------------------------------------------------
macc=18,600 weights=21,352 act=3,536 ram_io=0

Generated files (7)
----------------------------------------------------------------------------
C:\Users\r3101\.stm32cubemx\network_output\digit_cnn_config.h
C:\Users\r3101\.stm32cubemx\network_output\digit_cnn.h
C:\Users\r3101\.stm32cubemx\network_output\digit_cnn.c
C:\Users\r3101\.stm32cubemx\network_output\digit_cnn_data_params.h
C:\Users\r3101\.stm32cubemx\network_output\digit_cnn_data_params.c
C:\Users\r3101\.stm32cubemx\network_output\digit_cnn_data.h
C:\Users\r3101\.stm32cubemx\network_output\digit_cnn_data.c
